==========================================================================================
Layer (type:depth-idx)                   Output Shape              Param #
==========================================================================================
NeuralNetwork                            [1, 10]                   --
├─Flatten: 1-1                           [1, 784]                  --
├─Sequential: 1-2                        [1, 10]                   --
│    └─Linear: 2-1                       [1, 512]                  401,920
│    └─ReLU: 2-2                         [1, 512]                  --
│    └─Linear: 2-3                       [1, 512]                  262,656
│    └─ReLU: 2-4                         [1, 512]                  --
│    └─Linear: 2-5                       [1, 10]                   5,130
==========================================================================================
Total params: 669,706
Trainable params: 669,706
Non-trainable params: 0
Total mult-adds (Units.MEGABYTES): 0.67
==========================================================================================
Input size (MB): 0.00
Forward/backward pass size (MB): 0.01
Params size (MB): 2.68
Estimated Total Size (MB): 2.69
…
